…
\par \cf3\highlight0 train:\cf0  /home/ubuntu/cv_runs/cv/cv_runs/CA_SA/ultralytics/data/train... found 6101 images in 4 classes \u9989?\cf1\highlight2 
\par \cf3\highlight0 val:\cf0  /home/ubuntu/cv_runs/cv/cv_runs/CA_SA/ultralytics/data/val... found 714 images in 4 classes \u9989?\cf1\highlight2 
\par \cf3\highlight0 test:\cf0  /home/ubuntu/cv_runs/cv/cv_runs/CA_SA/ultralytics/data/test... found 357 images in 4 classes \u9989?\cf1\highlight2 
\par \cf0\highlight0 Overriding model.yaml nc=1000 with nc=4\cf1\highlight2 
\par 
\par \cf0\highlight0                    from  n    params  module                                       arguments\cf1\highlight2 
\par \cf0\highlight0   0                  -1  1       464  ultralytics.nn.modules.conv.Conv             [3, 16, 3, 2]\cf1\highlight2 
\par \cf0\highlight0   1                  -1  1      4672  ultralytics.nn.modules.conv.Conv             [16, 32, 3, 2]\cf1\highlight2 
\par \cf0\highlight0   2                  -1  1      6640  ultralytics.nn.modules.block.C3k2            [32, 64, 1, False, 0.25]\cf1\highlight2 
\par \cf0\highlight0   3                  -1  1     36992  ultralytics.nn.modules.conv.Conv             [64, 64, 3, 2]\cf1\highlight2 
\par \cf0\highlight0   4                  -1  1     26080  ultralytics.nn.modules.block.C3k2            [64, 128, 1, False, 0.25]\cf1\highlight2 
\par \cf0\highlight0   5                  -1  1    147712  ultralytics.nn.modules.conv.Conv             [128, 128, 3, 2]\cf1\highlight2 
\par \cf0\highlight0   6                  -1  1     87040  ultralytics.nn.modules.block.C3k2            [128, 128, 1, True]\cf1\highlight2 
\par \cf0\highlight0   7                  -1  1    295424  ultralytics.nn.modules.conv.Conv             [128, 256, 3, 2]\cf1\highlight2 
\par \cf0\highlight0   8                  -1  1    346112  ultralytics.nn.modules.block.C3k2            [256, 256, 1, True]\cf1\highlight2 
\par \cf0\highlight0   9                  -1  1    254018  ultralytics.nn.modules.block.C2PSA           [256, 256, 1]\cf1\highlight2 
\par \cf0\highlight0  10                  -1  1    335364  ultralytics.nn.modules.head.Classify         [256, 4]\cf1\highlight2 
\par \cf0\highlight0 YOLO11n-cls summary: 93 layers, 1,540,518 parameters, 1,540,518 gradients\cf1\highlight2 
\par \cf0\highlight0 Transferred 239/241 items from pretrained weights\cf1\highlight2 
\par \cf3\highlight0 AMP: \cf0 running Automatic Mixed Precision (AMP) checks...\cf1\highlight2 
\par \cf3\highlight0 AMP: \cf0 checks skipped \u9888?\cf4\highlight4\u65039?\cf0\highlight0 . Unable to load YOLO11n for AMP checks due to possible Ultralytics package modifications. Setting 'amp=True'. If you experience zero-mAP or NaN losses you can disable AMP with amp=False.\cf1\highlight2 
…
